models/resnet_test.pth (torch, 737515 bytes, 77 tensors)

conv1.weight f4 [16, 3, 3, 3]
0	0x3daeb327	0.08530264
1	0x3ea7455b	0.32670102
2	0x3e20fdc8	0.1572181
3	0x3da74123	0.08166721
4	0x3de1a7ac	0.11018309
5	0x3d2a0bb8	0.041515082
6	0xbdc40bbc	-0.09572551
7	0xbe3bae99	-0.18328322
8	0xbd9968ed	-0.07490716
9	0xbd7a2eaa	-0.06107966
10	0xbdc85876	-0.097824976
11	0xbdc65dba	-0.09685846
12	0xbe132d5e	-0.14372775
13	0xbec494bb	-0.38394722
14	0xbe7d8577	-0.24757944
15	0x3c15e37c	0.009148475
16	0xbe6d03cf	-0.23145984
17	0xbcfde970	-0.0309951
18	0x3d76eb08	0.060282737
19	0x3db4c318	0.08826274
20	0x3d24071e	0.04004585
21	0x3d8e8ef8	0.06960863
22	0xbd2bd602	-0.04195214
23	0xbc0f4655	-0.008744796
24	0x3e08eadc	0.13370842
25	0x3c46937e	0.012120126
26	0x3dcda325	0.10040883
27	0xb5c463c2	-1.4632171e-06
28	0x366bcdd8	3.5137546e-06
29	0x37b30367	2.1340047e-05
30	0xb7ab4af1	-2.0419686e-05
31	0xb78e369b	-1.6953147e-05
32	0x363a2dcb	2.7742815e-06
33	0xb77a9b04	-1.4937254e-05
34	0xb74fd3b0	-1.2387449e-05
35	0xb783bc36	-1.570406e-05
36	0xb845f593	-4.719717e-05
37	0xb846419e	-4.726799e-05
38	0xb823a33e	-3.901426e-05
39	0xb853d88b	-5.050799e-05
40	0xb81a9336	-3.6853562e-05
41	0xb824afac	-3.9264254e-05
42	0xb7df9fd7	-2.6658103e-05
43	0xb7d3587f	-2.519437e-05
44	0xb8126343	-3.4901557e-05
45	0x37569be2	1.2791688e-05
46	0x371106f3	8.6442915e-06
47	0x3669b2c6	3.4823765e-06
48	0xb6b3b2a1	-5.355411e-06
49	0x36020993	1.9377082e-06
50	0xb6aff6b9	-5.2441287e-06
51	0x36c02172	5.7259394e-06
52	0x375d3576	1.3185074e-05
53	0xb6284c84	-2.5078489e-06
54	0x3d418c03	0.047252666
55	0x3c06747a	0.008206481
56	0xbcc3ac73	-0.023885941
57	0xbdff36da	-0.12461634
58	0xbe695113	-0.22784834
59	0xbe2ac9bb	-0.16678517
60	0xbdab0f1c	-0.08352491
61	0xbe6d20da	-0.23157063
62	0xbdcd61e7	-0.10028439
63	0xbd23247b	-0.039829712
64	0xbb8e698c	-0.0043460783
65	0xbdb85cf4	-0.090021044
66	0xbd9fd1e5	-0.07803706
67	0xbc265e48	-0.010154314
68	0xbd6623d4	-0.056186512
69	0xbd3e938d	-0.046527434
70	0xbd26ea31	-0.040750686
71	0x3b049c2e	0.0020234692
72	0xb9c37033	-0.00037276893
73	0x3e1fd4df	0.15608548
74	0x3cae4884	0.021274813
75	0x3e2d82c2	0.16944411
76	0x3ec33088	0.38122964
77	0x3e78aa51	0.2428372
78	0x3e3e39b2	0.18576697
79	0x3e9ea629	0.30986145
80	0x3e665ed5	0.22497113
81	0xbd7beb3a	-0.061503626
82	0xbda54e90	-0.08071625
83	0x3d9cfe7d	0.07665727
84	0xbe6a47ba	-0.22878924
85	0xbce1f4f6	-0.027582627
86	0x3e98acdb	0.29819378
87	0xbdf5ab91	-0.11995614
88	0xbdbe8c0f	-0.09304058
89	0x3d50a675	0.050939996
90	0xbd968f91	-0.07351602
91	0xbd95e8e4	-0.07319811
92	0x3e3877a8	0.18014395
93	0xbe82f6be	-0.25578874
94	0xbc5e211d	-0.0135576995
95	0x3ee49efc	0.44652545
96	0xbe122692	-0.14272526
97	0xbd41a53c	-0.04727672
98	0x3e4c3f82	0.19946101
99	0xbd88fb15	-0.06688515
100	0xbd8e10f9	-0.06936831
101	0x3de50e4b	0.11184367
102	0xbe849400	-0.25894165
103	0xbd8220af	-0.0635389
104	0x3e9ecc2f	0.31015155
105	0xbe209fd5	-0.15685971
106	0xbd1bf323	-0.03807367
107	0x3e4f7b61	0.20261909
108	0x386fbcec	5.7157988e-05
109	0x37f6c24d	2.9415964e-05
110	0x37d3635b	2.5199426e-05
111	0x3766844b	1.373987e-05
112	0xb7385c71	-1.0988778e-05
113	0xb6f960c3	-7.432043e-06
114	0x3514481c	5.523923e-07
115	0xb7ce0968	-2.4561494e-05
116	0xb7e70d1b	-2.7543449e-05
117	0x3888782f	6.507371e-05
118	0x38439757	4.663257e-05
119	0x38211ab4	3.841026e-05
120	0x36c1594f	5.762245e-06
121	0xb73f18f5	-1.1390298e-05
122	0xb71b646a	-9.262099e-06
123	0x36a0b7f1	4.789785e-06
124	0xb7544311	-1.26518e-05
125	0xb78e79af	-1.6984382e-05
126	0x386f1590	5.7002122e-05
127	0x38266c65	3.9678434e-05
128	0x380d55be	3.3696873e-05
129	0xb7109d35	-8.6196715e-06
130	0xb7f2f1a5	-2.8961173e-05
131	0xb79b6d3b	-1.8528304e-05
132	0xb7b2e362	-2.1325137e-05
133	0xb8390073	-4.4107856e-05
134	0xb8079787	-3.232763e-05
135	0x3d1a1958	0.037621826
136	0xbde0463b	-0.109508954
137	0x3c8486e8	0.01617761
138	0x3e984a4c	0.29744184
139	0xbe03ebcd	-0.1288292
140	0xbe4950b1	-0.19659688
141	0x3d55a2c1	0.052157167
142	0xbdd9fb42	-0.10643627
143	0x3db8fe2a	0.09032853
144	0x3e296f2d	0.16546316
145	0xbde85ac0	-0.11345434
146	0xbde9b3c1	-0.114112385
147	0x3f08238e	0.5317925
148	0xbda81d23	-0.082086824
149	0xbec9fa71	-0.39448884
150	0x3e47f67c	0.1952762
151	0xbde92312	-0.11383642
152	0xbe09bbcc	-0.13450545
153	0x3c602a57	0.01368197
154	0xbe01937c	-0.12653917
155	0xbd240f3d	-0.040053595
156	0x3ed8c32a	0.42336398
157	0xbcf6676c	-0.030078612
158	0xbe9babb4	-0.30404437
159	0x3e8ce1d6	0.2751605
160	0xbd1d9cd9	-0.03847966
161	0xbdee70de	-0.116426215
162	0xbd46b9cf	-0.048517045
163	0xbe6bcd02	-0.23027423
164	0xbe16720a	-0.1469194
165	0xbe11a775	-0.14224036
166	0xbe63f27c	-0.22260469
167	0xbe7fc75f	-0.24978398
168	0xbceaf93c	-0.028683297
169	0xbe666239	-0.22498406
170	0xbe5077f4	-0.20358258
171	0x3dfe5893	0.12419238
172	0x3eaf6d63	0.34263143
173	0x3e6de562	0.23232034
174	0x3e89384b	0.2680076
175	0x3f3fa749	0.7486463
176	0x3ef4cf30	0.47814322
177	0x3e2da8dd	0.16958947
178	0x3ed69bb4	0.41915667
179	0x3e88a326	0.26686972
180	0xbca7e824	-0.020496435
181	0xbe61d41b	-0.22053568
182	0xbdbd108f	-0.09231674
183	0xbe6765c8	-0.2259742
184	0xbeb0315f	-0.34412667
185	0xbe8f85f3	-0.28031883
186	0xbdf678fe	-0.12034796
187	0xbe9572d6	-0.29189175
188	0xbe37190b	-0.17880647
189	0xbd8efe7b	-0.06982132
190	0xbe6ba66b	-0.23012702
191	0xbe058f33	-0.13042907
192	0xbe12ad1e	-0.14323851
193	0xbee14ba1	-0.44003013
194	0xbe61386d	-0.21994181
195	0xbdabf2bf	-0.083959095
196	0xbea01f01	-0.31273654
197	0xbdbca7f9	-0.09211726
198	0x3cbbe695	0.022937099
199	0x3dc11d66	0.094294354
200	0x3d977255	0.07394854
201	0x3de9d3cb	0.114173494
202	0x3dc8eb73	0.098105334
203	0x3e078659	0.13234843
204	0x3d7d7520	0.061879277
205	0x3a568fcf	0.00081848813
206	0x3db8aff0	0.090179324
207	0xbbbe5357	-0.0058082747
208	0x3e1043cd	0.14088364
209	0x3daecad0	0.08534777
210	0x3de3060b	0.11085137
211	0x3e569467	0.20955049
212	0x3e06b85f	0.1315627
213	0x3be4022d	0.006958267
214	0x3c735a28	0.014853038
215	0xbc9f0e28	-0.01941593
216	0x3d8d347d	0.06894777
217	0x3e43e8b8	0.19131744
218	0x3dd03fdd	0.10168431
219	0x3db8670b	0.09004029
220	0x3e82021c	0.25392234
221	0x3d8a626e	0.06757055
222	0xbd88db38	-0.06682438
223	0xbecf86a0	-0.40532398
224	0xbe34c5dd	-0.17653604
225	0xbc8375a2	-0.016047303
226	0x3e4dc48f	0.20094512
227	0x3deb7e9d	0.11498759
228	0x3e41e3c9	0.1893455
229	0x3ecedcd6	0.4040286
230	0x3dda42f9	0.10657305
231	0xbda92eef	-0.08260905
232	0xbecc0173	-0.39844856
233	0xbe96762d	-0.29387036
234	0xbe48ad9d	-0.19597478
235	0xbc2c8f1d	-0.010532168
236	0xbcc6f6fa	-0.02428769
237	0x3d3d2cf9	0.046185467
238	0x3e9c7fdc	0.305663
239	0x3de60d8e	0.11233054
240	0xbc44c2c2	-0.0120093245
241	0xbe18bceb	-0.14915816
242	0xbe0b34d7	-0.13594376
243	0xbe489146	-0.19586667
244	0xbe86bf1f	-0.2631769
245	0xbdbfc986	-0.093646094
246	0x3dbdb15d	0.09262345
247	0x3e795ec4	0.24352556
248	0x3e3ec734	0.18630677
249	0x3d215989	0.039392028
250	0x3e429b8c	0.19004649
251	0x3e35ef77	0.1776713
252	0xbda7b56d	-0.08188901
253	0xbe653c27	-0.22386228
254	0xbdd0e1f2	-0.10199346
255	0x3e131046	0.14361677

bn1.weight f4 [16]
0	0x3e8d0592	0.27543312
1	0x38810d60	6.1536906e-05
2	0x3e635b93	0.22202902
3	0x3e9e3d4b	0.30906138
4	0x36e17824	6.7195087e-06
5	0x3eb1e76c	0.34746873
6	0x3ea3eda8	0.32017255
7	0x3e6369bb	0.22208302
8	0x3ebb1069	0.36535957
9	0x3e7d6911	0.24747111
10	0x3ea1aa56	0.31575269
11	0x3ea38913	0.31940517
12	0x3e9219d4	0.2853533
13	0x3711931e	8.676927e-06
14	0x3f042507	0.51619
15	0x3e880b7f	0.2657127

bn1.bias f4 [16]
0	0x3ddb218e	0.106997594
1	0xb907de86	-0.000129575
2	0x3e1d192f	0.15341638
3	0x3e3b9814	0.18319732
4	0xb818b6e4	-3.6409954e-05
5	0x3e6e1030	0.23248363
6	0x3e2be37c	0.16785997
7	0x3e3d5a77	0.18491541
8	0x3eac5c8a	0.33664352
9	0x3e951592	0.2911802
10	0x3f2e1b78	0.68010664
11	0x3e059f6a	0.13049093
12	0x3f0b797f	0.54482263
13	0xb8295000	-4.0367246e-05
14	0xbe66876a	-0.22512594
15	0xbdc4358d	-0.095805265

bn1.running_mean f4 [16]
0	0x3df63723	0.12022235
1	0x38b3eb71	8.5792395e-05
2	0xbd392cb7	-0.04520866
3	0x3c0ce638	0.00859981
4	0xb7e28091	-2.7001168e-05
5	0x3cf0b52c	0.029383264
6	0xbc62080b	-0.013795863
7	0x3de4f097	0.11178701
8	0xbde205fe	-0.11036299
9	0xbdbc7ae2	-0.092031255
10	0xbd2bad4a	-0.04191331
11	0x3cb9329e	0.022607144
12	0x3c032e60	0.008006662
13	0x3849723b	4.802852e-05
14	0x3e69543d	0.2278604
15	0xbdccd32b	-0.100012146

bn1.running_var f4 [16]
0	0x3eee1924	0.46503556
1	0x340d14f9	1.3139278e-07
2	0x3f2f7a82	0.6854631
3	0x3fb8b87e	1.4431303
4	0x33959626	6.965665e-08
5	0x3fc21aed	1.5164467
6	0x3f07b6f8	0.53013563
7	0x3f25359c	0.64534926
8	0x3fa3cee5	1.2797514
9	0x3f2d00be	0.6757926
10	0x3ea0a275	0.31373945
11	0x3f80bf9e	1.0058477
12	0x3e65db48	0.2244693
13	0x334debce	4.7944745e-08
14	0x3f8e57df	1.1120566
15	0x3e97d272	0.29652745

layer1.0.conv1.weight f4 [16, 16, 3, 3]
0	0xbd8ae277	-0.06781476
1	0xba95e63c	-0.0011436413
2	0x3c62faed	0.013853771
3	0xbca1a2dd	-0.01973098
4	0x3d15b6ea	0.036551394
5	0xbd17f3e4	-0.037097827
6	0xbc31864d	-0.010835242
7	0xbdbb0ecd	-0.091336824
8	0xbd39d93e	-0.045373194
9	0xb6d72855	-6.4121946e-06
10	0x3532efac	6.6658936e-07
11	0x3790d990	1.7267448e-05
12	0xb5236a41	-6.087685e-07
13	0x37bfc572	2.2860917e-05
14	0x3805e4a4	3.192261e-05
15	0xb6e11627	-6.7081014e-06
16	0x3782f74e	1.5612368e-05
17	0x3754fb7a	1.2694736e-05
18	0x3d30ea4e	0.0431922
19	0x3c223e33	0.009902525
20	0x3d18739e	0.037219636
21	0x3d0ed447	0.034870412
22	0xbd1d78a1	-0.03844512
23	0x3b88732b	0.0041641197
24	0x3d24d337	0.040240493
25	0xbcf519b6	-0.029919486
26	0x3c27b87f	0.010236858
27	0xbe05903b	-0.13043301
28	0xbd65c4f2	-0.056096025
29	0x3cc1a212	0.023636851
30	0xbe096f07	-0.1342126
31	0xbd8db841	-0.06919909
32	0xbc0f349e	-0.008740572
33	0xbdfba203	-0.12286761
34	0x39ac0f25	0.0003281768
35	0x3b89d555	0.0042063394
36	0xb7d55059	-2.5428993e-05
37	0xb790348f	-1.7190612e-05
38	0xb78861a3	-1.6257929e-05
39	0x3663fed0	3.3973956e-06
40	0x36d545df	6.3560287e-06
41	0x369b490e	4.6278647e-06
42	0x36ab0942	5.097275e-06
43	0xb46c3774	-2.1999386e-07
44	0xb76831fd	-1.3839916e-05
45	0xbd0a942b	-0.03383271
46	0x3c98fbbe	0.018674728
47	0xbe53d0ee	-0.20685169
48	0x3d750b81	0.059825424
49	0x3dbea27e	0.09308337
50	0xbe0c8710	-0.13723397
51	0xbc8c68d8	-0.017139837
52	0x3b8cee8a	0.004300897
53	0xbdd9b138	-0.10629505
54	0x3be979fb	0.007125137
55	0xbc16e51e	-0.009209899
56	0x3d4f8ce2	0.050671466
57	0xbc80283f	-0.01564419
58	0xbddfe25f	-0.10931849
59	0x3da3f372	0.08005418
60	0xbdda7711	-0.10667241
61	0xbb8f873a	-0.004380134
62	0x3cc2c9fa	0.02377795
63	0xbc9e4e71	-0.019324513
64	0xbcaa4dde	-0.020789083
65	0x3c543d60	0.012954086
66	0xbb0afd69	-0.0021208173
67	0xbd24ec83	-0.040264618
68	0x3b688949	0.003548222
69	0x3b8be574	0.0042692963
70	0xbd8a7f0c	-0.067625135
71	0x3cc8f41d	0.024530465
72	0xbc9042a8	-0.01760991
73	0x3c799c08	0.015234955
74	0xbd133c02	-0.0359459
75	0x3e05f929	0.13083328
76	0xbc4957d6	-0.012289008
77	0xbd48b729	-0.0490028
78	0xbd109b28	-0.03530422
79	0x3d33e964	0.04392375
80	0x3cc0d8ce	0.02354088
81	0xbca1257d	-0.019671196
82	0x3d03b570	0.032155454
83	0x3aab1662	0.0013052935
84	0xbc6d6cc8	-0.0144912675
85	0xbd08106c	-0.033218786
86	0xbd5b9054	-0.05360444
87	0x3ccd574a	0.025066037
88	0x3d1c6caa	0.038189568
89	0x3d3040cd	0.04303055
90	0xbc5322bb	-0.012886698
91	0xbd53ca19	-0.051706407
92	0x3cc8110b	0.02442219
93	0x3eab9d40	0.3351841
94	0xbf1b0c3b	-0.6056554
95	0x3ea21353	0.31655368
96	0x3d3cb4b0	0.046070755
97	0xbc9defa2	-0.019279305
98	0xbd43dae8	-0.047816187
99	0x3b1cb9cb	0.0023914452
100	0xbbf0fed8	-0.0073545985
101	0xbd8a0593	-0.067393444
102	0xbd59b136	-0.053147517
103	0x3d895e93	0.06707492
104	0x3c951be8	0.018201783
105	0xbd993292	-0.07480349
106	0x3ccbd7f5	0.02488325
107	0xbd94484d	-0.07240353
108	0x3dfd0eee	0.12356363
109	0xbde92db6	-0.11385672
110	0xbcb986bf	-0.02264726
111	0xbe39cd99	-0.18144836
112	0x3e8e886c	0.27838457
113	0xbd7800d3	-0.06054766
114	0x3dae320d	0.0850564
115	0xbdb35a74	-0.08757487
116	0xbd15b99f	-0.036553975
117	0x340e042c	1.3226298e-07
118	0xb543577d	-7.2770473e-07
119	0xb663a7b9	-3.3923263e-06
120	0xb699397b	-4.566447e-06
121	0xb72fbc9a	-1.0474725e-05
122	0xb74d274f	-1.2228104e-05
123	0xb58a8e98	-1.0323301e-06
124	0xb6c1e798	-5.7788093e-06
125	0xb6d56f07	-6.36082e-06
126	0xbd3429b2	-0.043985076
127	0xbc62367b	-0.0138069345
128	0x3d0d6b93	0.03452642
129	0xbe51dce0	-0.20494413
130	0x3d786db2	0.06065149
131	0xba363a17	-0.0006951405
132	0x3ca784c9	0.02044906
133	0x3d071d3b	0.03298686
134	0x3da5bc13	0.08092513
135	0x3d80e886	0.0629435
136	0x3d19e4b0	0.03757161
137	0x3bc42d7e	0.0059868684
138	0xbd609534	-0.05482979
139	0xbcd08b60	-0.025457084
140	0xbd977fcd	-0.07397423
141	0xbd422cbd	-0.047405947
142	0x3d420bd9	0.04737458
143	0xbd50b08c	-0.05094962
144	0xbd339bfd	-0.043849934
145	0xbd266d53	-0.040631603
146	0x3ccd20f1	0.025040122
147	0x390602e6	0.00012780316
148	0xbcbe2473	-0.02321074
149	0x3ca1f6fd	0.019771094
150	0x3d091f83	0.033477318
151	0xbbcd81dc	-0.006271584
152	0x3ba056d9	0.0048931655
153	0x370fe663	8.577105e-06
154	0x37a1841b	1.9254212e-05
155	0x37eaca50	2.7989183e-05
156	0x3641ab67	2.885901e-06
157	0x3769065b	1.3889362e-05
158	0x37d80255	2.5750292e-05
159	0xb64ed0f4	-3.0818019e-06
160	0x36b115d8	5.277554e-06
161	0x373744b8	1.092365e-05
162	0xbdb001fb	-0.08594128
163	0xbd4a732b	-0.04942624
164	0x3cb5689c	0.022144608
165	0xbd66bfdd	-0.05633532
166	0xbcb5f7cb	-0.022212883
167	0x3d384e82	0.044996746
168	0xbc70f4c0	-0.01470679
169	0x3bf2a051	0.007404365
170	0x3d55ff34	0.052245334
171	0xbc946b05	-0.018117437
172	0xbd48a068	-0.0489811
173	0xbd878347	-0.06616836
174	0x3c84a975	0.016194085
175	0xbd1a8830	-0.037727535
176	0xbd81d06c	-0.063385814
177	0x3d90cc60	0.070702314
178	0xbc420572	-0.011842119
179	0x3c14c399	0.009079837
180	0xb74576eb	-1.1769803e-05
181	0xb640dada	-2.8737618e-06
182	0xb4d70538	-4.0050668e-07
183	0xb5b2e0fb	-1.3327511e-06
184	0x348739ed	2.5187856e-07
185	0x36530114	3.1442078e-06
186	0x36104833	2.1499698e-06
187	0x34004203	1.1944944e-07
188	0xb614ff97	-2.2202491e-06
189	0x3cd503e1	0.026002826
190	0xbcca0115	-0.02465872
191	0x3d879a6e	0.06621252
192	0x3d079c41	0.033108
193	0x3c6330c8	0.013866611
194	0x3dccc2d8	0.09998101
195	0xbc9b6fe8	-0.01897426
196	0xbd0e7d25	-0.034787316
197	0x3d09a94c	0.03360872
198	0x3d57ae31	0.052656356
199	0x39808d86	0.00024519506
200	0xbd2535d1	-0.040334526
201	0x3d4539d5	0.048150856
202	0xbcaade4a	-0.020857949
203	0xbda4b30e	-0.080419645
204	0x3c1ccb47	0.0095699495
205	0xbd03e5f5	-0.032201726
206	0xbda2805b	-0.07934638
207	0xbd1da5a5	-0.03848805
208	0x3b22c69a	0.0024837614
209	0x3d8d9343	0.069128536
210	0xbd0bac39	-0.03409979
211	0x3c9823a2	0.018571679
212	0x3dbc0c50	0.09182036
213	0xbc7b899b	-0.015352632
214	0x3c6cfb2e	0.014464183
215	0x3d9e6076	0.07733242
216	0xbc16a1bd	-0.009193835
217	0x3c56d0c4	0.013111297
218	0x3dd214aa	0.102578476
219	0x3d927ceb	0.071527325
220	0x3d2c3e84	0.042051807
221	0xbbd67ea1	-0.006545857
222	0x3dde82f4	0.10864821
223	0x3cfc0634	0.030764677
224	0xbd216926	-0.039406918
225	0x3d8e2417	0.06940477
226	0x3c1bfb8c	0.009520423
227	0xbcb1c24a	-0.02169909
228	0x3d7685fc	0.06018637
229	0xbc4d3f85	-0.012527351
230	0xbbf6d370	-0.0075325295
231	0xbcf773c7	-0.030206574
232	0xbd049779	-0.032371018
233	0x3d20ff9f	0.03930628
234	0x3d52d44b	0.05147199
235	0xbc1ff049	-0.009761878
236	0xbde5da94	-0.11223331
237	0x3d765688	0.060141116
238	0x3d0534d5	0.032521088
239	0x3bb13484	0.0054078717
240	0xbd99919a	-0.074984744
241	0xbae145b8	-0.0017186916
242	0x3d911e1e	0.070858225
243	0x3c938893	0.01800946
244	0x3cdb1a52	0.026745949
245	0x3c9fcbc8	0.01950635
246	0x3c64e83d	0.013971386
247	0x3d089750	0.033347428
248	0x3da94394	0.08264843
249	0xbc7cf6f3	-0.015439737
250	0x395c1225	0.00020987594
251	0x3d8f28fb	0.06990238
252	0x3d458e63	0.048231494
253	0x3db7dd2b	0.08977731
254	0x3d4a404c	0.049377725
255	0x3d822241	0.0635419

layer1.0.bn1.weight f4 [16]
0	0x3ebb50fa	0.36585218
1	0x3e656d92	0.22405079
2	0x3ebc3076	0.36755723
3	0x3e90928f	0.28236815
4	0x3ea15755	0.31511942
5	0x3ec1f50b	0.37882265
6	0x3e8dfc65	0.27731624
7	0x3ea3b018	0.31970286
8	0x3e785bbc	0.24253744
9	0x3e7f6d49	0.24944033
10	0x3e8393ae	0.25698608
11	0x3eea8eba	0.45812017
12	0x3ea859df	0.32881066
13	0x3e9327c8	0.28741288
14	0x3e754504	0.23952109
15	0x3e7f11c9	0.24909128

layer1.0.bn1.bias f4 [16]
0	0x3e890201	0.2675934
1	0xbb9c63eb	-0.0047726533
2	0x3da6fc76	0.08153622
3	0xbe8e089d	-0.27740946
4	0x3eada56b	0.33915266
5	0xbdd2eb8d	-0.10298834
6	0xbd8a2de5	-0.06747035
7	0xbcf9bf26	-0.030486654
8	0x3d14a871	0.03629345
9	0x3e4a16cc	0.19735259
10	0x3d9945e1	0.074840315
11	0xbe78621a	-0.24256173
12	0xbe0a2e44	-0.13494211
13	0xbd9f0c10	-0.077659726
14	0x3c21545a	0.009846771
15	0x3c8dc0a2	0.017303769

layer1.0.bn1.running_mean f4 [16]
0	0xbe874a1d	-0.2642373
1	0x3f179190	0.59206486
2	0xbe8c9d1f	-0.27463624
3	0x3e19e1c0	0.15027523
4	0xbcdddd55	-0.027083078
5	0xbe8c9b15	-0.27462068
6	0x3caad9c4	0.020855792
7	0xbee14be1	-0.44003204
8	0xbc8b493c	-0.017002694
9	0xbebd3a8d	-0.36958733
10	0xbf3051bd	-0.6887472
11	0xbed607c2	-0.41802794
12	0xbf03a127	-0.51417774
13	0xbd3ffda3	-0.046872746
14	0x3e155ae6	0.14585456
15	0xbf0d9053	-0.55298346

layer1.0.bn1.running_var f4 [16]
0	0x3deff9d7	0.11717575
1	0x3d0fc767	0.035102274
2	0x3df422b3	0.11920681
3	0x3d3a77db	0.04552446
4	0x3d787df8	0.06066701
5	0x3d79cd22	0.060986646
6	0x3d355788	0.04427293
7	0x3de5b278	0.11215681
8	0x3d5a0df2	0.053235956
9	0x3d913fe4	0.07092264
10	0x3d11536b	0.035479944
11	0x3ddf986e	0.109177455
12	0x3d18de67	0.037321474
13	0x3d730c11	0.05933768
14	0x3d39ee92	0.045393534
15	0x3d6f325f	0.058397647

layer1.0.conv2.weight f4 [16, 16, 3, 3]
0	0x3cb8f6bf	0.022578595
1	0xbcedb266	-0.029015731
2	0x3d7eb6e0	0.062186122
3	0xbd2d5dff	-0.04232597
4	0xbcb8ecd0	-0.022573858
5	0xbd8a0a72	-0.067402735
6	0xba93e1f3	-0.0011282548
7	0x3d8858ae	0.06657539
8	0xbd262cc1	-0.040570024
9	0xbdaf79c4	-0.08568147
10	0xbda3d89b	-0.080002986
11	0xbd456aa8	-0.04819742
12	0xbcec5ca4	-0.028852768
13	0x3c8bb734	0.017055131
14	0x3d8952e8	0.06705266
15	0x3d0fe310	0.035128653
16	0x3d659d06	0.056057952
17	0xbc3e0fa1	-0.011600406
18	0x3d447981	0.047967438
19	0x3dac62be	0.08417271
20	0x3cdc3fa0	0.026885808
21	0xbd9d0157	-0.07666271
22	0xbb84155f	-0.004030868
23	0xbd3546e5	-0.044257063
24	0xbccab5c8	-0.024744883
25	0x3d3d11a7	0.046159413
26	0x3d9bb6d5	0.07603232
27	0x3dd37691	0.10325349
28	0x3d86efc6	0.06588702
29	0x3ccb25ec	0.024798356
30	0x3d7823a0	0.06058085
31	0x3c734a26	0.014849221
32	0xbd0a2092	-0.033722468
33	0x3b3ea813	0.002909188
34	0xbd186374	-0.03720422
35	0xbd581656	-0.052755676
36	0x3d7e9509	0.06215385
37	0xbd7338a2	-0.05938018
38	0xbdd44385	-0.10364441
39	0x3d3ec530	0.04657477
40	0x3db43224	0.08798626
41	0xbd43d9bf	-0.04781508
42	0xbb6b7965	-0.003593051
43	0x3d2ced6f	0.04221862
44	0xbe014cf8	-0.12627017
45	0xbd9a72ba	-0.075414136
46	0xbe200f2a	-0.15630785
47	0xbd5fdfaf	-0.05465668
48	0xbd82bd6e	-0.06383787
49	0xbd79ed5a	-0.06101737
50	0x3ca94ca3	0.020666426
51	0x3d46e771	0.048560563
52	0x3e225262	0.15851739
53	0x3e20a536	0.15688023
54	0xbb4e0a37	-0.0031439194
55	0x3d1acdbd	0.037793864
56	0x3d65f39f	0.05614054
57	0xbc7e3398	-0.015515231
58	0x3ce71acc	0.02821102
59	0x3d803cca	0.062615946
60	0xbcad61d8	-0.02116482
61	0x3b91196f	0.0044280807
62	0x3b24129b	0.0025035504
63	0x3cad0c2a	0.021123964
64	0xbdb7139b	-0.08939286
65	0xbdabf63f	-0.08396577
66	0xbbceb5d5	-0.006308297
67	0xbd9dec12	-0.077110425
68	0xbd5ff84c	-0.054680154
69	0xba3f6c83	-0.0007302241
70	0xbce4ff50	-0.027953774
71	0x3c9d69ec	0.019215547
72	0x3d2314ee	0.039814882
73	0x3d87609f	0.06610226
74	0x3d164948	0.03669098
75	0xbd9267a7	-0.07148676
76	0xbcda12cd	-0.026620293
77	0xbcbeda5c	-0.023297481
78	0x3cd2cc54	0.025732197
79	0x3d2bf7e7	0.041984465
80	0x3d3550cb	0.044266503
81	0x3dbb588b	0.091477476
82	0x3d12645f	0.035740253
83	0x3d93391b	0.071886264
84	0xbd1e34ac	-0.03862445
85	0xbde7baf3	-0.113149546
86	0xbd1090cd	-0.035294343
87	0xbd297b72	-0.041377492
88	0xbdcb574c	-0.0992876
89	0xbd2301c5	-0.03979661
90	0xbda34810	-0.07972729
91	0xbddd5eb3	-0.10809078
92	0xbd9adfd5	-0.07562224
93	0xbc3e4ce3	-0.011615011
94	0x3d9f4b64	0.077780515
95	0x3db26d42	0.087122455
96	0x3d43abfa	0.04777143
97	0x3df58ae6	0.119893834
98	0x3d9cfbf3	0.07665243
99	0xbdc77d66	-0.09740715
100	0xbe0c9711	-0.13729502
101	0xbdb5a8a3	-0.088700555
102	0xbd2a3058	-0.04155001
103	0xbd0289a1	-0.031869534
104	0x3c00266e	0.007821662
105	0x3c7a0cea	0.015261868
106	0x3e076356	0.13221487
107	0x3db5525a	0.08853598
108	0xbd58ed6e	-0.052960806
109	0xbca1f7b1	-0.019771429
110	0x3d80309d	0.06259272
111	0xbc8aaa42	-0.016926888
112	0x3c190e51	0.009341792
113	0x3bfe64e5	0.0077634924
114	0xbb62faaf	-0.0034634282
115	0x3d06389d	0.032768834
116	0x3b788652	0.0037921858
117	0xbcbf0b1b	-0.023320725
118	0x3d514eef	0.051100668
119	0x3d84db95	0.064871944
120	0xbd0bbbc4	-0.034114614
121	0xbbeebd52	-0.0072857523
122	0xbc792507	-0.015206582
123	0xbc8fc62d	-0.017550552
124	0x3cac67e6	0.021045636
125	0x3cf506af	0.029910414
126	0x3c5be53b	0.013421352
127	0x3dcc780a	0.09983833
128	0x3d16ef2e	0.036849193
129	0x3d80c495	0.06287495
130	0x3d9e9f0c	0.077451795
131	0x3c6f378f	0.014600649
132	0xbd6dc445	-0.058048505
133	0xbd5e394c	-0.05425386
134	0xbd5bcfeb	-0.053665083
135	0xbdadc139	-0.0848412
136	0xbc2d5ccf	-0.010581209
137	0xbc7eb994	-0.015547175
138	0x3d1ee8b9	0.03879616
139	0x3db9f05c	0.09079048
140	0x3ceb34b5	0.028711656
141	0x3ce21733	0.027598953
142	0x3d6b12ed	0.057391096
143	0x3cade01e	0.021225031
144	0x36e20fcb	6.7371634e-06
145	0xb939ed45	-0.00017731365
146	0x3928093b	0.00016025167
147	0x385f0742	5.3174103e-05
148	0xb919128a	-0.00014598123
149	0x3887437c	6.4498716e-05
150	0xb914c855	-0.0001418901
151	0xb8f4c3dc	-0.00011671308
152	0xb906bbaf	-0.00012849153
153	0x36b973f0	5.5269265e-06
154	0xb854f347	-5.077131e-05
155	0xb9082f13	-0.00012987507
156	0x38457a03	4.7082092e-05
157	0xb7aad385	-2.0364076e-05
158	0xb84975b1	-4.8031743e-05
159	0x385e4d2f	5.3000807e-05
160	0x38376b6f	4.3730655e-05
161	0x38a53109	7.8769466e-05
162	0xb91d1922	-0.0001498205
163	0x39223ea2	0.00015472856
164	0x37241ff8	9.782605e-06
165	0xb8ce670d	-9.84204e-05
166	0x384a3953	4.821394e-05
167	0xb8441567	-4.6749974e-05
168	0xb8061f9e	-3.1977535e-05
169	0x389e60e4	7.5520744e-05
170	0xb80dc6ac	-3.3802047e-05
171	0xb7bf4076	-2.2798991e-05
172	0xb6dcb3fb	-6.5774634e-06
173	0x358b965d	1.0400069e-06
174	0xb77eba42	-1.5182946e-05
175	0x3690400f	4.298992e-06
176	0x353a3528	6.936775e-07
177	0xb750db77	-1.2448864e-05
178	0x36f3b452	7.2629564e-06
179	0xb7867d7d	-1.603248e-05
180	0xb74ddf60	-1.2270961e-05
181	0x3834ac1c	4.3075634e-05
182	0x39837a51	0.000250774
183	0xb88f6a80	-6.8386085e-05
184	0x37aee8fe	2.0850912e-05
185	0x3981b546	0.00024739857
186	0xb8bd2f55	-9.0210386e-05
187	0x38b883eb	8.798375e-05
188	0x3952a4e7	0.00020088592
189	0x37c15daf	2.3051018e-05
190	0xb93f239e	-0.00018228448
191	0xb8596b79	-5.1836923e-05
192	0xb78ac7c6	-1.6543909e-05
193	0xb92a6ec8	-0.00016253733
194	0xb94103fe	-0.00018407402
195	0x37e23b41	2.6968892e-05
196	0xb88b43c7	-6.640661e-05
197	0xb932eaf6	-0.00017062933
198	0xb7ade30f	-2.072894e-05
199	0xb87290e6	-5.7832243e-05
200	0xb72098dd	-9.572334e-06
201	0x387a0c69	5.9616203e-05
202	0xb703ee7e	-7.863737e-06
203	0xb75f5024	-1.3310495e-05
204	0x392abc6f	0.0001628266
205	0x3842a014	4.640229e-05
206	0xb62221f2	-2.415964e-06
207	0xb7db283e	-2.6125574e-05
208	0x37a1182f	1.9203957e-05
209	0x36c98bc8	6.0065395e-06
210	0x38b65e29	8.695975e-05
211	0x37b016ff	2.0991543e-05
212	0xb8039469	-3.137105e-05
213	0x39258ccf	0.00015788082
214	0x38a9ba50	8.0932514e-05
215	0xb7d720f0	-2.5645335e-05
216	0x3773a461	1.4522201e-05
217	0x388c8bc7	6.701756e-05
218	0x385fb4bb	5.333566e-05
219	0xb8749cf3	-5.8320304e-05
220	0x3817c50b	3.6184716e-05
221	0x38189673	3.637974e-05
222	0xb88ae789	-6.6234796e-05
223	0x37a76b86	1.995802e-05
224	0x387481cf	5.8295027e-05
225	0x38ff8506	0.00012184125
226	0x3898967a	7.275953e-05
227	0xb8a9dd7e	-8.099804e-05
228	0x38efb736	0.00011430534
229	0x38c1697e	9.2226066e-05
230	0xb81f24c7	-3.7942806e-05
231	0x38ff5c90	0.00012176589
232	0x38b2c285	8.5239335e-05
233	0xb85e729a	-5.3035656e-05
234	0xb75bd5f4	-1.3103232e-05
235	0x379ca57d	1.867371e-05
236	0x378fa2c9	1.7122731e-05
237	0xb7f21879	-2.8860044e-05
238	0xb64eb714	-3.0802958e-06
239	0x380665cd	3.20429e-05
240	0xb7d83f4e	-2.5778685e-05
241	0xb81a023c	-3.6718542e-05
242	0x380eaf57	3.4018736e-05
243	0xb8a0ad31	-7.661654e-05
244	0xb80cd467	-3.3576416e-05
245	0x36f99d3a	7.439082e-06
246	0xb8343207	-4.2961936e-05
247	0xb85b0a1c	-5.2223084e-05
248	0x37041e19	7.874821e-06
249	0xb7b0a450	-2.1057349e-05
250	0xb82c2d88	-4.10504e-05
251	0xb7b3832a	-2.139954e-05
252	0xb85d7cb5	-5.280665e-05
253	0x38b924a6	8.828314e-05
254	0x38d550c0	0.00010171672
255	0xb8c14d53	-9.21736e-05

layer1.0.bn2.weight f4 [16]
0	0x3e4399ca	0.19101635
1	0x3663aea7	3.3927297e-06
2	0x3e3359c3	0.1751471
3	0x3e96328a	0.29335433
4	0x3e89884a	0.26861793
5	0x3e86bf16	0.26317662
6	0x3e7899e0	0.24277449
7	0x3e84fa26	0.25972098
8	0x3e8a6a8b	0.2703441
9	0x3e462e42	0.19353583
10	0x3f040667	0.5157227
11	0x3e9dd893	0.30829296
12	0x3f064f35	0.5246461
13	0x3e656f29	0.22405685
14	0x3ef148f9	0.47125986
15	0x3e2dd20c	0.16974658

layer1.0.bn2.bias f4 [16]
0	0x3de57c37	0.11205333
1	0xb9ca9659	-0.0003864046
2	0x3dd06043	0.101746105
3	0x3d746ffe	0.059677117
4	0x3ec2dcd6	0.3805911
5	0xbd9497df	-0.072555296
6	0x3d3350a2	0.04377807
7	0x3e6035c0	0.21895504
8	0xbd86e8d9	-0.06587381
9	0x3e0d7edb	0.13817923
10	0xbddebc9c	-0.10875818
11	0x3e0fa513	0.14027815
12	0xbdaf6acd	-0.085652925
13	0xbca58fc9	-0.020210164
14	0x3e408296	0.18799815
15	0x3e022c79	0.12712277

layer1.0.bn2.running_mean f4 [16]
0	0xbceee91b	-0.029163888
1	0x39630bbf	0.00021652783
2	0x3e1d3aed	0.1535451
3	0xbdc75b13	-0.09734168
4	0xbe8dc392	-0.2768827
5	0xbd210105	-0.039307613
6	0x3dcd46af	0.100232475
7	0xbdd4b5dd	-0.1038625
8	0x3d3d4ff1	0.046218816
9	0xbe40eb6c	-0.18839806
10	0xbd911354	-0.07083765
11	0x3dff1ffd	0.12457273
12	0xbdc67591	-0.09690393
13	0xbdcc7146	-0.09982543
14	0xbd58ea32	-0.05295772
15	0xbb7f0391	-0.0038912038

layer1.0.bn2.running_var f4 [16]
0	0x3cd02c16	0.025411647
1	0x34092bdf	1.277508e-07
2	0x3d4d30ff	0.050095554
3	0x3d63893b	0.055550795
4	0x3d798909	0.060921703
5	0x3d301ee7	0.04299822
6	0x3d3d614b	0.046235364
7	0x3d351376	0.044208013
8	0x3d665fe5	0.056243796
9	0x3ce721a1	0.028214278
10	0x3d5009fb	0.050790768
11	0x3da34525	0.07972173
12	0x3d895c48	0.067070544
13	0x3c97392f	0.018459884
14	0x3db8bf3c	0.0902085
15	0x3c8072cd	0.015679741

layer1.1.conv1.weight f4 [16, 16, 3, 3]
0	0xbdc1825d	-0.09448693
1	0xbe00e056	-0.12585577
2	0xbdecde82	-0.115658775
3	0xbdeb2b18	-0.11482829
4	0xbd1914d3	-0.037373375
5	0x3d6afcd4	0.057370022
6	0xbd16826b	-0.03674547
7	0x3db69c3d	0.08916519
8	0x3e200bd5	0.15629514
9	0x38254ba3	3.9409508e-05
10	0x382a8ab4	4.0660336e-05
11	0x3869145f	5.55705e-05
12	0x380d472e	3.368331e-05
13	0x3823638c	3.895494e-05
14	0x38718946	5.7586723e-05
15	0x3794d06a	1.7740025e-05
16	0x37fc19c1	3.0052734e-05
17	0x38630c82	5.4132666e-05
18	0x3e0fb076	0.14032158
19	0x3e2e6731	0.17031552
20	0x3ca51298	0.020150468
21	0x3db3ae82	0.08773519
22	0xbcc581ed	-0.024109805
23	0xbe08a1a5	-0.13342912
24	0xbd9a059f	-0.075206034
25	0xbe272e04	-0.16326147
26	0xbe0a686f	-0.13516401
27	0x3d8f090c	0.069841474
28	0x3babd6f2	0.0052441293
29	0xbd457912	-0.048211165
30	0xbd929c5a	-0.07158728
31	0xbd983e52	-0.07433762
32	0x3c2937ad	0.010328216
33	0xbdb449b4	-0.0880312
34	0x3ce858c0	0.028362632
35	0x3e0dc3d8	0.1384424
36	0x3d6161b2	0.05502481
37	0x3da1381b	0.078720294
38	0x3bb3f88a	0.0054922746
39	0x3c86c00d	0.016448999
40	0x3d03e309	0.03219894
41	0xbd6f65bb	-0.058446627
42	0xbd11c118	-0.03558454
43	0xbcfc075c	-0.030765228
44	0xbde3efcf	-0.11129724
45	0xbcbcee4d	-0.02306285
46	0x3cf021f3	0.029313063
47	0x3d094109	0.033509288
48	0x3cb485e0	0.022036493
49	0x3b825ad1	0.0039781113
50	0xbd567d7c	-0.052365765
51	0xbcc19cff	-0.023634432
52	0x3b9c807a	0.004776058
53	0xbc8540f1	-0.016266318
54	0x3df43dae	0.11925827
55	0x3d523563	0.051320445
56	0x3c6c7c99	0.014434003
57	0x3d7d3bb0	0.0618245
58	0xbd28d093	-0.041214537
59	0xbdb8be4c	-0.09020671
60	0xbd83ecbf	-0.0644164
61	0xbd19997b	-0.037499886
62	0xb9a55a21	-0.00031538404
63	0x3d878930	0.06617963
64	0x3e899cfb	0.2687758
65	0x3dbb6725	0.09150533
66	0x3e25f589	0.16206945
67	0x3d5eb85b	0.054375034
68	0xbe16e235	-0.14734729
69	0xbcd4ebb2	-0.025991295
70	0xbe637bcd	-0.22215195
71	0xbe32f778	-0.17477214
72	0xbb922f0a	-0.004461174
73	0x3ac87154	0.0015292563
74	0xbda91d7e	-0.08257578
75	0x3da0cbdf	0.07851385
76	0x3bebf6cf	0.0072010527
77	0xbd27903c	-0.040909037
78	0x3ca5640a	0.020189304
79	0xbc670ec2	-0.01410264
80	0xbb1fc1d9	-0.0024377017
81	0xbdb7cafc	-0.08974263
82	0xbdab8012	-0.08374037
83	0x3d4efc99	0.050533865
84	0xbd979a2a	-0.07402451
85	0x3d4bdbb8	0.049770087
86	0x3e0561e6	0.13025627
87	0x3d57028c	0.052492663
88	0x3e1e2af7	0.15446077
89	0x3d732283	0.059359085
90	0xbd372a31	-0.04471797
91	0xbcb9caa8	-0.022679642
92	0x3cd70d16	0.026251357
93	0xbbc69793	-0.0060605495
94	0x3c39beda	0.011337006
95	0xbd5a9a69	-0.053369913
96	0xbcbfc249	-0.023408072
97	0x3d4cbc66	0.04998436
98	0xbc3aeb9b	-0.011408712
99	0xbd3242bc	-0.043520674
100	0xbc9ea49d	-0.019365603
101	0xbd336ea8	-0.043806702
102	0xbcdced2c	-0.026968561
103	0x3c691615	0.014226456
104	0xbd823931	-0.06358565
105	0xbd84aca5	-0.06478242
106	0xbc152462	-0.009102913
107	0xbd7b07d6	-0.06128677
108	0xbc2a2bc3	-0.01038641
109	0x3cae4322	0.021272246
110	0x3a9715ee	0.0011526921
111	0x3c8fd5e0	0.017558038
112	0x3d524341	0.05133367
113	0x3c798784	0.015230063
114	0xbd0d284b	-0.034462254
115	0x3d2da155	0.042390186
116	0x3d7682df	0.060183402
117	0xbd1566dc	-0.036475047
118	0xbd96312a	-0.07333596
119	0xbd0368d2	-0.032082386
120	0xbd6cc8e7	-0.057808783
121	0xbcd4e352	-0.025987301
122	0x3d35c290	0.044375002
123	0xbceb47f4	-0.028720833
124	0x3d485d53	0.048917126
125	0x3d8a3dd5	0.06750075
126	0x3ca1d8cf	0.019756703
127	0x3c941961	0.018078508
128	0x3d1c3093	0.03813226
129	0xbd63037e	-0.055423252
130	0xbc261520	-0.0101368725
131	0x39889693	0.00026052128
132	0xbb508700	-0.0031818748
133	0x3d39d422	0.04536832
134	0x3d64547b	0.05574463
135	0xbe05d539	-0.13069619
136	0xbe23bf43	-0.1599093
137	0xbd36b169	-0.044602785
138	0xbe04bb05	-0.12961967
139	0xbc9d97be	-0.019237395
140	0x3d67b9c5	0.056573648
141	0x3d36ef09	0.044661555
142	0x3e105d1c	0.14098018
143	0x3d91b735	0.07115022
144	0x3d26ca71	0.040720407
145	0x3dbeb0f7	0.09311097
146	0x3d332cc6	0.04374387
147	0xbdd4000e	-0.10351573
148	0x3cadfc03	0.021238333
149	0x3de6d030	0.11270177
150	0xbd8c29fa	-0.06843944
151	0xbdb8d1b3	-0.09024372
152	0x3baa5fca	0.005199407
153	0x376bff24	1.4066496e-05
154	0x37620915	1.3472764e-05
155	0xb6f5d813	-7.3267233e-06
156	0x38548dd5	5.067683e-05
157	0x381acc87	3.6906942e-05
158	0x3798967a	1.8189883e-05
159	0x387a7a2f	5.9718437e-05
160	0x3828384a	4.0106745e-05
161	0x37e74c5a	2.75729e-05
162	0xbc882749	-0.016620295
163	0xbd869649	-0.06571633
164	0xbdb03286	-0.086033866
165	0x3d321adf	0.043482658
166	0x3c2dc6cc	0.010606479
167	0xbd826442	-0.06366779
168	0x3c4d953a	0.012547785
169	0x3d5c8a67	0.05384293
170	0x3ce0bed8	0.027434751
171	0x3d9221b7	0.07135337
172	0x3dab8970	0.083758235
173	0x3d6cc107	0.057801273
174	0x3c115cdb	0.008872236
175	0x3d1beb41	0.038066152
176	0xbb8e8ecd	-0.0043505193
177	0xbdb31936	-0.08745043
178	0xbc608040	-0.013702452
179	0xbe050b45	-0.1299258
180	0xbc5c1209	-0.013432034
181	0xbced9674	-0.029002406
182	0xbb3d63a1	-0.0028898495
183	0x3d540091	0.051758353
184	0x3c0c0995	0.008547206
185	0xbd14d855	-0.036339123
186	0x3db1f260	0.086888075
187	0x3d9b24c5	0.075753726
188	0xbd2436d5	-0.040091354
189	0xbb45d11c	-0.0030184453
190	0x3d3baf90	0.045821726
191	0x3d37663d	0.044775236
192	0xbc7f06c0	-0.015565574
193	0x3c43b773	0.011945593
194	0xbd75b9bd	-0.059991587
195	0x3cb185c7	0.021670235
196	0x3d863535	0.06553117
197	0x3c503c2d	0.0127096595
198	0xbd0067db	-0.031349044
199	0x3a91b807	0.0011117466
200	0xbc2393ec	-0.009983998
201	0xbcb9ce6d	-0.02268144
202	0xbc93f672	-0.01806185
203	0x3c7a0798	0.0152606
204	0x3d3101bc	0.043214545
205	0xbcbdff23	-0.023192948
206	0xbbd35f23	-0.00645055
207	0x3d0e6ce0	0.0347718
208	0xbda66aef	-0.08125865
209	0xbe3e94eb	-0.18611495
210	0x3deb63a2	0.11493613
211	0x3dfbc9ce	0.122943506
212	0xbda8c2f8	-0.08240312
213	0xbbe1578b	-0.006876891
214	0x3e0d3ce7	0.13792764
215	0x3d5b7bd3	0.053584885
216	0x3cdae7dd	0.02672189
217	0x3ddedff3	0.10882559
218	0x3d3cce76	0.046095334
219	0xbd5fdf3e	-0.05465626
220	0xbb9d20da	-0.004795176
221	0x3be74fc0	0.0070590675
222	0xbdbb42e4	-0.09143618
223	0xbe0b5c63	-0.13609461
224	0xbd41d15f	-0.047318812
225	0xbd809678	-0.062787
226	0x3b96ba0a	0.0045998143
227	0x3e01178b	0.12606637
228	0xbd79b47b	-0.060963135
229	0xbdbd8096	-0.092530414
230	0xbcf7eb1c	-0.030263476
231	0x3d7876cc	0.06066017
232	0x3c29991a	0.010351444
233	0xbdc26989	-0.094927855
234	0xbde631ff	-0.11240005
235	0xbc2e2ab7	-0.010630301
236	0x3e192d2e	0.14958641
237	0x3ca948eb	0.020664653
238	0xbe20bbb8	-0.15696609
239	0x3bc8a88e	0.006123609
240	0x3e12cdbb	0.14336292
241	0x3d7340a3	0.059387814
242	0xbd88823e	-0.06665467
243	0xbd3f439b	-0.046695333
244	0xbd8d41b8	-0.068973005
245	0xbd9ce66c	-0.07661137
246	0x3d2cf850	0.042228997
247	0x3d84f933	0.064928435
248	0xbd85d8f7	-0.065355234
249	0xbdb87f06	-0.09008603
250	0xbc8e8700	-0.017398357
251	0x3d1207ef	0.035652097
252	0x3caa013f	0.020752547
253	0xbe4c75fe	-0.19966885
254	0xbda23e4d	-0.07922039
255	0x3d1ef2b5	0.038805682

layer1.1.bn1.weight f4 [16]
0	0x3eb0d5c8	0.34538102
1	0x3eb90c76	0.3614232
2	0x3ed33906	0.41254443
3	0x3efd9e56	0.49534863
4	0x3ed7700e	0.42077678
5	0x3ed4b347	0.41543028
6	0x3f028a28	0.5099206
7	0x3eff02d7	0.49806854
8	0x3ebbc83e	0.3667621
9	0x3ee6833f	0.45022008
10	0x3f104896	0.5636076
11	0x3ee7e80a	0.4529422
12	0x3ea90361	0.3301039
13	0x3eb73af7	0.35787174
14	0x3ec865ed	0.39140263
15	0x3ea74d87	0.32676336

layer1.1.bn1.bias f4 [16]
0	0xbe535752	-0.20638779
1	0xbdb33e31	-0.087520964
2	0xbdfb8350	-0.12280905
3	0xbdbe675e	-0.092970595
4	0xbde1b851	-0.11021484
5	0xbe32a374	-0.17445165
6	0xbdce5ec3	-0.10076668
7	0xbd0e5760	-0.034751296
8	0xbd61e3a7	-0.055148747
9	0xbd9e94c4	-0.077432185
10	0xbd9e0e2d	-0.077175476
11	0xbdc79219	-0.09744663
12	0xbe26ef3c	-0.16302198
13	0xbe3bcc25	-0.18339594
14	0xbdbe1e00	-0.09283066
15	0xbe1de962	-0.1542106

layer1.1.bn1.running_mean f4 [16]
0	0xbd90d153	-0.070711754
1	0xbe854066	-0.26025695
2	0xbe642fc2	-0.22283843
3	0x3ea448ab	0.3208669
4	0xbe5097e3	-0.2037044
5	0xbf27ddeb	-0.65572995
6	0xbe7b374c	-0.24532813
7	0xbdb5aaa9	-0.088704415
8	0x3e875d72	0.2643848
9	0xbe568b58	-0.20951593
10	0xbc07ba8d	-0.008284223
11	0xbe129f64	-0.14318615
12	0x3d4ed649	0.050497327
13	0x3e15943b	0.14607327
14	0xbdb50d15	-0.08840386
15	0xbea2da7a	-0.3180731

layer1.1.bn1.running_var f4 [16]
0	0x3de700bf	0.11279439
1	0x3e5540dd	0.20825525
2	0x3ec27584	0.37980282
3	0x3f51230b	0.81694096
4	0x3ee35648	0.44401765
5	0x3eaf1833	0.3419815
6	0x3f2d8ee3	0.6779615
7	0x3f6f0ebd	0.93381864
8	0x3e9945fd	0.2993621
9	0x3ec0e542	0.3767491
10	0x3f87c477	1.0606831
11	0x3eea456f	0.457561
12	0x3e0083fc	0.12550348
13	0x3e053c27	0.13011228
14	0x3ebbeb95	0.36703172
15	0x3e0ba01b	0.13635294

layer1.1.conv2.weight f4 [16, 16, 3, 3]
0	0xbbc4111e	-0.005983486
1	0x3d571519	0.052510355
2	0x3cb296e7	0.021800471
3	0x3be67fe6	0.0070342897
4	0x3dbd784d	0.09251461
5	0x3d60a046	0.05484035
6	0xbbfb180a	-0.007662778
7	0x3dbdc3d7	0.09265869
8	0x3d5d8298	0.054079622
9	0xbdaa16bd	-0.08305118
10	0xbd5526f8	-0.052039117
11	0xbc90ac87	-0.017660392
12	0xbd5ac445	-0.053409833
13	0xbd84f869	-0.06492693
14	0xbc2913ac	-0.010319632
15	0x3d607b08	0.05480483
16	0x3d5399ca	0.051660337
17	0xbb750747	-0.003738837
18	0xbbbe1f93	-0.005802104
19	0xbd04103d	-0.03224205
20	0xbdbfc38b	-0.09363469
21	0x3c50896a	0.012728075
22	0x3c1a4d31	0.009417818
23	0xbd47d175	-0.04878374
24	0x3d26bc56	0.040706955
25	0xbb93bdfa	-0.004508731
26	0xbd6c304a	-0.05766324
27	0xbe02f665	-0.12789305
28	0xbdfca98b	-0.12337025
29	0xbd042fa1	-0.032271985
30	0xbcb36060	-0.021896541
31	0x3d52df8d	0.051482726
32	0x3dbf3068	0.09335405
33	0xbd12a247	-0.03579929
34	0x3dafa06b	0.08575519
35	0x3d13b79b	0.03606377
36	0xbd0a971d	-0.03383552
37	0xbdb1f494	-0.08689228
38	0xbcd37723	-0.025813645
39	0xbdb585cc	-0.0886341
40	0xbd646e4d	-0.055769254
41	0x3c1887b8	0.009309702
42	0xbb72f160	-0.003707014
43	0x3d5b57bb	0.053550463
44	0x3e1336f9	0.14376439
45	0x3d140ae3	0.036143195
46	0xbb9e83e3	-0.0048374995
47	0x3d4e635e	0.050387733
48	0xbc4d12e8	-0.012516715
49	0xbd7e1089	-0.062027488
50	0xbbbd9f0e	-0.005786783
51	0xbd2e22f3	-0.0425138
52	0xbd80684e	-0.062698945
53	0xbd92d809	-0.07170112
54	0x3c1619f6	0.009161463
55	0x3d06f38d	0.032947112
56	0xbd0ed88c	-0.034874484
57	0x3cc6df6a	0.024276454
58	0xbc1f403e	-0.009719906
59	0xbd64e21e	-0.055879705
60	0x3dac4276	0.08411114
61	0x3db5c56d	0.088755466
62	0x3d291366	0.041278265
63	0xbcaa6a93	-0.020802772
64	0x3cca2094	0.024673738
65	0x3dd69a8f	0.104786985
66	0xbd4b3385	-0.04960968
67	0x3d30af58	0.04313597
68	0x3d7bd7d1	0.061485115
69	0xbddccffc	-0.10781857
70	0xbb9403af	-0.0045170407
71	0x3cabd6d5	0.020976463
72	0xbe09ac8f	-0.13444732
73	0xbda7c917	-0.08192652
74	0x3d2d81c7	0.042360093
75	0xbdf83387	-0.12119203
76	0xbe21d722	-0.15804723
77	0xbd27e6d6	-0.040991627
78	0xbd856101	-0.06512643
79	0xbd12b634	-0.035818294
80	0xbc645f1f	-0.013938694
81	0xbdb5ce6e	-0.08877264
82	0xbe0c779e	-0.13717505
83	0xbd784a92	-0.06061799
84	0xbe089932	-0.1333969
85	0xbe34c083	-0.17651562
86	0xbd7bd13f	-0.06147885
87	0xbd815d2b	-0.063165985
88	0xbd0d51c3	-0.034501802
89	0xbc9633ad	-0.018335188
90	0x3d601f16	0.054717146
91	0x3d74a26c	0.05972521
92	0xbc87aded	-0.016562426
93	0xbd0cb635	-0.034353454
94	0xbdc7b856	-0.09751956
95	0xbdb51c85	-0.0884333
96	0x3d913c26	0.070915505
97	0x3cc05aac	0.023480736
98	0x3d8ddd00	0.06926918
99	0xbcc604b1	-0.024172159
100	0xbbc6e059	-0.006069225
101	0xbc88a995	-0.016682426
102	0x3c90caed	0.017674888
103	0x3cb0e43a	0.021593202
104	0x3cc79e51	0.024367483
105	0x3d875cbb	0.06609484
106	0x3dbb9757	0.09159725
107	0x3e44ab18	0.19205892
108	0xbc02f7ce	-0.007993652
109	0xbc851bb0	-0.016248554
110	0x3c8f1da1	0.017470183
111	0x3b61fefd	0.003448426
112	0x3d2f4870	0.04279369
113	0x3d893d24	0.06701115
114	0x3d870c26	0.06594114
115	0x3daa67d6	0.083205864
116	0x3db643dc	0.08899662
117	0xbdae8a2f	-0.0852245
118	0xbc2c8d1c	-0.01053169
119	0x3ceb7dd1	0.028746517
120	0xbd49c24c	-0.04925756
121	0x3ccdb453	0.0251104
122	0x3dc4590d	0.095872976
123	0xbcfa0f37	-0.030524833
124	0x3d78011a	0.060547926
125	0x3daa7d89	0.08324725
126	0xbd8956f2	-0.067060366
127	0xbd9309ab	-0.071795784
128	0x3cce25fb	0.025164595
129	0xbdebddb4	-0.11516896
130	0xbdb36240	-0.08758974
131	0x3d231a71	0.03982014
132	0xbd8a1adb	-0.067434035
133	0x3ccbfcbe	0.02490079
134	0x3daa53b4	0.08316746
135	0xbd629ded	-0.05532639
136	0xbc49aa7a	-0.012308711
137	0x3d54d6a3	0.051962506
138	0xbdaa8c5b	-0.08327552
139	0xbcdf554b	-0.02726235
140	0x3d955560	0.072916746
141	0xbcd205b1	-0.02563748
142	0xbb2a27c5	-0.0025963646
143	0x392924e1	0.00016130834
144	0xbdee05a1	-0.116221674
145	0xbdb98426	-0.090584084
146	0x3c460fde	0.012088744
147	0xbdae425d	-0.085087515
148	0xbdd16ad0	-0.10225451
149	0xbc83635e	-0.016038593
150	0xbdc3572f	-0.09538113
151	0xbe1daf6b	-0.15398948
152	0xbd1f8287	-0.03894284
153	0xbd80b0ea	-0.06283744
154	0x3b785107	0.0037890093
155	0x3cdccdb9	0.026953565
156	0xbdaa3d72	-0.08312501
157	0xbcffcd0f	-0.03122571
158	0xbcf9c7ae	-0.030490723
159	0xbcf6187d	-0.030040974
160	0x3c5de8b4	0.01354425
161	0xbd001a05	-0.031274814
162	0xbc47baf7	-0.012190572
163	0xbd7186ea	-0.058966555
164	0xbd33dfaa	-0.043914475
165	0x3d810c06	0.063011214
166	0xbd4a625f	-0.04941022
167	0xbdb085e7	-0.0861929
168	0x3d89daa2	0.06731154
169	0xbd3c9eb9	-0.046049807
170	0x3c266b58	0.010157429
171	0xbdacd9ef	-0.08440005
172	0xbe20a399	-0.15687408
173	0xbde2c315	-0.11072365
174	0xbdf32d09	-0.11873824
175	0xbe72aca6	-0.23698673
176	0xbe2c431b	-0.16822474
177	0xbdd6eaae	-0.1049398
178	0xbe61104f	-0.21978877
179	0xbe5db426	-0.21650752
180	0xbcf88059	-0.030334638
181	0xbcf166d1	-0.029467972
182	0xbaca94f6	-0.0015455771
183	0xbcf99da2	-0.030470673
184	0x3c14e0f9	0.009086841
185	0x3cb10889	0.021610515
186	0xbb834f4b	-0.004007255
187	0x3c27bc01	0.010237695
188	0x3d938eb0	0.0720495
189	0x3c293a14	0.010328788
190	0x3d01b7ab	0.0316693
191	0x3d82e0f7	0.06390565
192	0x3d2526f5	0.040320355
193	0x3d247970	0.040154874
194	0x3d82dc94	0.06389728
195	0x3d8b8837	0.0681309
196	0x3d8a85fd	0.067638375
197	0x3dc1c283	0.09460928
198	0xbd007ed5	-0.031370956
199	0xbd144bf6	-0.036205254
200	0xbd062c2e	-0.032756977
201	0xbc796d47	-0.015223808
202	0xbc017407	-0.007901198
203	0xbce7dccc	-0.028303526
204	0x3d74f545	0.05980422
205	0x3d94f96c	0.07274136
206	0x3ccb29b0	0.024800152
207	0xbdf00488	-0.11719614
208	0xbe3fdc8c	-0.18736476
209	0xbe4c0d66	-0.19926986
210	0xbe049634	-0.12947923
211	0xbe82d440	-0.2555256
212	0xbe71bb08	-0.23606503
213	0xbdfc0b2b	-0.123068176
214	0xbe585032	-0.21124342
215	0xbe5d3070	-0.21600509
216	0x3cc6f42e	0.024286356
217	0x3d621f80	0.055205822
218	0x3ded92ab	0.1160024
219	0x3d30564e	0.043051057
220	0x3d70eddc	0.05882059
221	0x3d9dd3d4	0.07706419
222	0x3d82566f	0.06364142
223	0x3d6da750	0.05802089
224	0x3d80a0d4	0.062806755
225	0x3dae5c33	0.08513679
226	0x3d688b1a	0.056773283
227	0xbc8add96	-0.016951364
228	0x3da6b6f4	0.08140364
229	0x3dad8879	0.08473296
230	0x3e06b452	0.13154724
231	0x3d181732	0.037131496
232	0x3db3ca1a	0.08778782
233	0x3e11c43f	0.14235018
234	0xbb7e8ed1	-0.003884245
235	0xbcd99dd6	-0.02656452
236	0x3c8dd381	0.017312767
237	0xbd0c1d45	-0.0342076
238	0xbd2ba3d7	-0.041904297
239	0xbc29b880	-0.01035893
240	0xbca313ad	-0.019906843
241	0x3c91cb97	0.017797275
242	0x3d91c2b0	0.07117212
243	0x3db93137	0.0904259
244	0xbd2c3bce	-0.04204922
245	0xbd21fcab	-0.039547604
246	0x3d134b26	0.03596034
247	0xbe1677cc	-0.14694136
248	0xbd1b1774	-0.037864164
249	0x3b626e8e	0.003455076
250	0xbd4da64a	-0.050207414
251	0xbc511f2a	-0.012763778
252	0x3cc76811	0.024341615
253	0x3cd6f682	0.026240591
254	0x3c742d26	0.014903342
255	0x3d800eb9	0.06252808

layer1.1.bn2.weight f4 [16]
0	0x3e731a4e	0.23740503
1	0x3f053b33	0.52043456
2	0x3be1a5f2	0.0068862373
3	0x3ea7c452	0.32766968
4	0x3ec72d7b	0.38901886
5	0x3e885dc2	0.26634032
6	0x3cc83a73	0.024441933
7	0x3e21d2b8	0.15803039
8	0x3e717054	0.23578006
9	0x3e9df6c9	0.30852345
10	0x3f1114cd	0.56672364
11	0x3e918a87	0.28426
12	0x3f1c14d4	0.6096928
13	0x3efb62a9	0.4909871
14	0x3e91d957	0.2848613
15	0x3ec1a5e1	0.37821868

layer1.1.bn2.bias f4 [16]
0	0x3e1bf522	0.1523023
1	0x3e86c81c	0.26324546
2	0x3cb6ca1c	0.02231317
3	0x3e427f57	0.18993889
4	0x3e93c201	0.2885895
5	0xbe2b3bc5	-0.16722019
6	0x3cd6e7e9	0.02623363
7	0xbc1872cc	-0.009304713
8	0x3da77112	0.08175863
9	0x3e5dfcff	0.21678542
10	0xbe8466e0	-0.25859737
11	0x3dd886fa	0.1057262
12	0xbe2a1728	-0.16610396
13	0x3e066751	0.1312535
14	0xbe2fdca7	-0.17174016
15	0x3cc09918	0.0235105

layer1.1.bn2.running_mean f4 [16]
0	0xbdf40256	-0.11914508
1	0xbea7625d	-0.32692233
2	0xbabd93b2	-0.0014463572
3	0xbe9dd364	-0.3082534
4	0xbed3f588	-0.41398263
5	0x3cf3f106	0.029778015
6	0xbbf3932d	-0.007433316
7	0x3d8fa985	0.07014755
8	0x3e84093c	0.25788295
9	0xbe6391a4	-0.22223526
10	0xbd85f7f3	-0.06541433
11	0x3e82a8ff	0.2551956
12	0xbe8bfe2a	-0.2734235
13	0xbec21e7f	-0.37913892
14	0x3c9f0e9f	0.019416152
15	0xbe1a0809	-0.15042128

layer1.1.bn2.running_var f4 [16]
0	0x3d29a128	0.041413456
1	0x3e253add	0.16135736
2	0x3c27012b	0.01019315
3	0x3da4e84a	0.08052118
4	0x3e3256c2	0.17415908
5	0x3d1799f5	0.03701206
6	0x3c63459d	0.013871578
7	0x3d179ab3	0.037012767
8	0x3d8497c7	0.06474262
9	0x3dc43f0a	0.09582336
10	0x3d8c89a1	0.06862188
11	0x3da956b9	0.08268494
12	0x3db709a9	0.089373894
13	0x3deb1b78	0.114798486
14	0x3d59208f	0.053009566
15	0x3d748043	0.059692632

layer2.0.conv1.weight f4 [32, 16, 3, 3]
0	0x3bed607a	0.007244167
1	0xbc9437fc	-0.018093102
2	0x3cf21302	0.02955008
3	0x3d7e68fb	0.062111836
4	0x3d2a8a98	0.04163608
5	0x3cc842d3	0.024445927
6	0x3d0d9b6f	0.03457206
7	0xbb1c35e3	-0.002383583
8	0xbca1cde1	-0.019751491
9	0x3d2f8998	0.04285583
10	0x3d16b469	0.036793146
11	0xbcbf1cf7	-0.023329241
12	0x3a82dd70	0.0009984206
13	0xbcb7a6af	-0.022418348
14	0xbd3f3546	-0.046681665
15	0xbcbd4320	-0.023103297
16	0x3ca0126d	0.019540036
17	0xbc37fc4b	-0.011229585
18	0xbc85a68e	-0.016314771
19	0x3b36de2b	0.0027903419
20	0x3c02034a	0.0079353545
21	0xbc90184e	-0.017589714
22	0xbc536419	-0.012902283
23	0xbc23985b	-0.009985055
24	0xbc80e239	-0.015732871
25	0xbc965dd3	-0.018355286
26	0xbc8eb636	-0.01742087
27	0xbdd0ca30	-0.10194814
28	0xbd3898df	-0.045067664
29	0x379df4f2	1.882992e-05
30	0xbe0838c6	-0.13302907
31	0xbdab2dd5	-0.08358351
32	0xbb9332e2	-0.0044921497
33	0xbdfeb54e	-0.12436925
34	0xbd6fc40b	-0.05853657
35	0x3d943495	0.07236592
36	0xbce6ef41	-0.028190257
37	0xbdcddd87	-0.100520186
38	0xbc7fe145	-0.015617673
39	0x3cc00a3e	0.023442384
40	0xbd4d35e5	-0.050100226
41	0xbcc986bf	-0.024600385
42	0x3d56c256	0.052431427
43	0xbd564d79	-0.052319977
44	0x3b484819	0.0030560552
45	0x3918e88f	0.00014582484
46	0x3c39c9c8	0.011339612
47	0xbd8902f9	-0.0669002
48	0x3db05769	0.08610422
49	0x3b1f88b0	0.0024342947
50	0xbdc35a78	-0.0953874
51	0x3dc56aad	0.096394874
52	0x3d83b970	0.06431854
53	0xbd8a3ccf	-0.067498796
54	0x3b97bdee	0.0046307957
55	0xbce91e32	-0.028456781
56	0x3d00d983	0.031457435
57	0xbc74cff0	-0.014942154
58	0xbd73c1be	-0.05951094
59	0x3cb4ed3f	0.022085784
60	0xbd49f28a	-0.04930357
61	0xbd9f3fba	-0.07775827
62	0xbc3c3b78	-0.011488788
63	0x3d013fe4	0.03155507
64	0xbcbb96d3	-0.022899067
65	0xbd875e8b	-0.066098295
66	0x3d4edb4a	0.0505021
67	0x3cc56316	0.0240951
68	0xbd11d310	-0.035601676
69	0x3d8f94e5	0.07010821
70	0x3d81f458	0.06345433
71	0x3aed97da	0.001812692
72	0xbdb31291	-0.08743776
73	0xbc923bc1	-0.017850759
74	0xbae9e3b0	-0.0017844345
75	0xbd59fedc	-0.05322157
76	0x3d0dc994	0.034616068
77	0x3d76d4a1	0.060261372
78	0xbd6a3a11	-0.057184283
79	0xbba7fb75	-0.0051264116
80	0x3d29095c	0.04126869
81	0x3d897dae	0.067134246
82	0x3d9dddb2	0.07708301
83	0x3d6d7612	0.05797393
84	0x3d5e1257	0.05421671
85	0x3c5c012a	0.013428012
86	0xbc41e56d	-0.0118344845
87	0x3cdbd7bd	0.02683627
88	0xbcb8bc42	-0.022550706
89	0xbcb8361f	-0.022486744
90	0xbce9a42c	-0.028520666
91	0xbcf972fc	-0.030450337
92	0x3d13d057	0.03608736
93	0xbd94ec07	-0.07271581
94	0xbd0b3164	-0.03398265
95	0xbb1749c9	-0.002308475
96	0xbc797026	-0.015224492
97	0x3ca6d430	0.02036485
98	0x3d4e7709	0.05040649
99	0xbd5df820	-0.05419171
100	0xbc5f576e	-0.013631685
101	0x3d2ce66e	0.042211942
102	0xbdd5b018	-0.10433978
103	0xbcfc6e11	-0.030814203
104	0x3d098548	0.033574373
105	0xbd3d7aac	-0.046259567
106	0x3d313f82	0.043273456
107	0x3d14d387	0.03633454
108	0x3d06130e	0.032733016
109	0xbca4365c	-0.020045452
110	0x3d2f02f9	0.042727444
111	0x3ca7c2eb	0.020478686
112	0xbbf6e5f7	-0.007534738
113	0x3d1f8de7	0.038953688
114	0x3aba4d03	0.0014213625
115	0x3c8cb912	0.017178092
116	0x3d1c97de	0.03823077
117	0x3c3349f3	0.010942924
118	0x3d1c1dee	0.03811448
119	0x3d3c11c1	0.04591537
120	0x3c20d959	0.009817445
121	0x3c52511d	0.012836722
122	0x3caef84f	0.021358637
123	0x3cd77229	0.026299553
124	0xbba06649	-0.004895006
125	0xbcae3512	-0.02126554
126	0x3d69573f	0.05696797
127	0x3db47c5d	0.08812783
128	0x3c612691	0.013742105
129	0x3d8eead1	0.069783814
130	0x3e0922b9	0.13392152
131	0x3da8c42b	0.08240541
132	0x3d3d908c	0.04628043
133	0x3e2192eb	0.15778701
134	0x3e0754f0	0.13215995
135	0xbd3fb518	-0.046803564
136	0xbc1df199	-0.009640121
137	0x3cbf253e	0.023333188
138	0xbd4436ef	-0.04790395
139	0xbd02b274	-0.031908467
140	0x3d950731	0.07276762
141	0xbd928412	-0.07154097
142	0xbd93a69f	-0.07209515
143	0x3da6e1b1	0.08148516
144	0xbd095f85	-0.03353836
145	0xbc90245e	-0.017595466
146	0xbc2dbb46	-0.0106037315
147	0xbd4562b3	-0.04818983
148	0x3bfbc294	0.0076831076
149	0x3d88c5be	0.06678341
150	0xbd7f4d8b	-0.06232981
151	0x3d3e3015	0.046432573
152	0x3d828288	0.06372553
153	0x3dc62cd3	0.09676518
154	0x3ddaae05	0.10677723
155	0x3da9155b	0.08256026
156	0x3c909327	0.017648293
157	0xbd205ae2	-0.039149173
158	0xbdbe1924	-0.09282139
159	0xbd964969	-0.073382206
160	0xbe141f80	-0.14465141
161	0xbe26ea54	-0.16300327
162	0x3d55ed0e	0.052228026
163	0x3d7aa592	0.061193056
164	0x3cc5d803	0.024150854
165	0x3d5c2405	0.05374529
166	0x3ce62365	0.02809305
167	0xbbc844c0	-0.0061117113
168	0x3c29c3b6	0.0103616025
169	0xbd35310a	-0.04423622
170	0xbd98a802	-0.0745392
171	0x3caa3233	0.02077589
172	0x3d250bfe	0.04029464
173	0xbc76ff78	-0.015075557
174	0xbb8e598d	-0.0043441714
175	0xbc87e2b9	-0.016587602
176	0xbd43468a	-0.047674693
177	0xbd749f45	-0.059722204
178	0x3cadf4ce	0.021234896
179	0x3d30efb5	0.043197352
180	0xbb686ecb	-0.0035466428
181	0x3c85ff96	0.016357224
182	0xbd986592	-0.07441248
183	0x3d1c8978	0.038217038
184	0x3dad9f2b	0.084776245
185	0xbbf132fa	-0.007360813
186	0x3dcaf76b	0.099104725
187	0x3d2ad809	0.041709933
188	0xbc31a74a	-0.0108431075
189	0xbd17f916	-0.03710278
190	0xbc14e6e3	-0.009088251
191	0x3cfdeb97	0.030996127
192	0xbd276b0e	-0.04087358
193	0x3b3a3836	0.0028414852
194	0x3d93103c	0.07180831
195	0xbd38bf9b	-0.045104604
196	0x3c8aaf91	0.01692942
197	0xbd046b27	-0.03232875
198	0xbc56eaa9	-0.013117471
199	0x3c821ec5	0.015883813
200	0x3d41018c	0.047120616
201	0x3dd7cc20	0.10536981
202	0x3d8e269a	0.069409564
203	0x3cabb94d	0.020962382
204	0x3d7a5bd1	0.06112272
205	0xbcd7c21c	-0.026337676
206	0xbdbd964b	-0.09257182
207	0x3cc52ae7	0.024068309
208	0x3d121a3a	0.035669543
209	0x3c37a52e	0.0112088155
210	0x3d7b51e9	0.061357412
211	0x3d28b917	0.04119214
212	0xbb936421	-0.0044980203
213	0x3c8b0d91	0.016974242
214	0xbcbcc4db	-0.023043087
215	0xbdaae1b6	-0.08343832
216	0x3d00c122	0.031434186
217	0xbcc89f5e	-0.024490055
218	0x3d6dd2a6	0.058062218
219	0x3d24bd30	0.040219486
220	0x3d120965	0.03565349
221	0x3d2426b7	0.040075984
222	0x3d660ab4	0.05616255
223	0x3db354a0	0.08756375
224	0xbc331904	-0.010931257
225	0xbcabf161	-0.020989122
226	0x3ca4a151	0.020096453
227	0x3b9bff45	0.004760655
228	0xbd13b479	-0.036060784
229	0x3d305ef8	0.04305932
230	0x3a7e1b68	0.0009693415
231	0xbbb2bac8	-0.005454395
232	0x3d3790b2	0.044815727
233	0x3d6854bb	0.05672143
234	0xbcd4ab21	-0.025960507
235	0xbc20fe29	-0.0098262215
236	0xbd6fa6ab	-0.058508556
237	0xbb9a8292	-0.004715272
238	0xbc12105b	-0.008915032
239	0x3cae108c	0.021248125
240	0xbcf850f0	-0.030312032
241	0x3d0d4149	0.03448609
242	0x3d74b213	0.059740137
243	0xba8bc23b	-0.0010662744
244	0xbd9f347f	-0.07773685
245	0xbdb4761e	-0.088115916
246	0xbc896320	-0.0167709
247	0xbc4adeca	-0.012382219
248	0xbb9f4517	-0.004860531
249	0x3d065fb4	0.032806113
250	0x3d640429	0.05566803
251	0x3cc1ea98	0.023671433
252	0x3d4157b1	0.04720277
253	0x3dd390bf	0.103303425
254	0x3be1d8a5	0.006892281
255	0x3dca3550	0.0987345
